…
    "X_train = X_train.astype(\"float32\")\n",
    "X_test = X_test.astype(\"float32\")\n",
    "X_train /= 255\n",
    "## 1 ~ 0 사이의 값으로 정규화\n",
    "X_test /=255"
   ]
  },
  {
   "cell_type": "code",
   "execution_count": 8,
   "metadata": {},
   "outputs": [
    {
     "name": "stdout",
     "output_type": "stream",
     "text": [
      "_________________________________________________________________\n",
      "Layer (type)                 Output Shape              Param #   \n",
      "=================================================================\n",
      "conv2d_1 (Conv2D)            (None, 32, 32, 32)        896       \n",
      "_________________________________________________________________\n",
      "activation_1 (Activation)    (None, 32, 32, 32)        0         \n",
      "_________________________________________________________________\n",
      "max_pooling2d_1 (MaxPooling2 (None, 16, 16, 32)        0         \n",
      "_________________________________________________________________\n",
      "dropout_1 (Dropout)          (None, 16, 16, 32)        0         \n",
      "_________________________________________________________________\n",
      "conv2d_2 (Conv2D)            (None, 16, 16, 64)        18496     \n",
      "_________________________________________________________________\n",
      "activation_2 (Activation)    (None, 16, 16, 64)        0         \n",
      "_________________________________________________________________\n",
      "conv2d_3 (Conv2D)            (None, 14, 14, 64)        36928     \n",
      "_________________________________________________________________\n",
      "activation_3 (Activation)    (None, 14, 14, 64)        0         \n",
      "_________________________________________________________________\n",
      "max_pooling2d_2 (MaxPooling2 (None, 7, 7, 64)          0         \n",
      "_________________________________________________________________\n",
      "dropout_2 (Dropout)          (None, 7, 7, 64)          0         \n",
      "_________________________________________________________________\n",
      "conv2d_4 (Conv2D)            (None, 7, 7, 96)          55392     \n",
      "_________________________________________________________________\n",
      "activation_4 (Activation)    (None, 7, 7, 96)          0         \n",
      "_________________________________________________________________\n",
      "conv2d_5 (Conv2D)            (None, 5, 5, 96)          83040     \n",
      "_________________________________________________________________\n",
      "activation_5 (Activation)    (None, 5, 5, 96)          0         \n",
      "_________________________________________________________________\n",
      "max_pooling2d_3 (MaxPooling2 (None, 2, 2, 96)          0         \n",
      "_________________________________________________________________\n",
      "dropout_3 (Dropout)          (None, 2, 2, 96)          0         \n",
      "_________________________________________________________________\n",
      "flatten_1 (Flatten)          (None, 384)               0         \n",
      "_________________________________________________________________\n",
      "dense_1 (Dense)              (None, 512)               197120    \n",
      "_________________________________________________________________\n",
      "activation_6 (Activation)    (None, 512)               0         \n",
      "_________________________________________________________________\n",
      "dropout_4 (Dropout)          (None, 512)               0         \n",
      "_________________________________________________________________\n",
      "dense_2 (Dense)              (None, 10)                5130      \n",
      "_________________________________________________________________\n",
      "activation_7 (Activation)    (None, 10)                0         \n",
      "=================================================================\n",
      "Total params: 397,002\n",
      "Trainable params: 397,002\n",
      "Non-trainable params: 0\n",
      "_________________________________________________________________\n"
     ]
    }
   ],
   "source": [
    "model = Sequential()\n",
    "model.add(Conv2D(32, (3, 3), padding=\"same\",\n",
    "                input_shape=(IMG_ROWS, IMG_COLS, IMG_CHANNELS)))\n",
…
    "y_one_hot = np_utils.to_categorical(labels, nb_classes)\n",
    "x_train, x_test, y_train, y_test = train_test_split(\n",
    "    np.array(imgs), y_one_hot, test_size=0.3, random_state=42)"
   ]
  },
  {
   "cell_type": "code",
   "execution_count": 75,
   "metadata": {},
   "outputs": [
    {
     "name": "stdout",
     "output_type": "stream",
     "text": [
      "_________________________________________________________________\n",
      "Layer (type)                 Output Shape              Param #   \n",
      "=================================================================\n",
      "conv2d_37 (Conv2D)           (None, 128, 128, 32)      896       \n",
      "_________________________________________________________________\n",
      "activation_29 (Activation)   (None, 128, 128, 32)      0         \n",
      "_________________________________________________________________\n",
      "max_pooling2d_21 (MaxPooling (None, 64, 64, 32)        0         \n",
      "_________________________________________________________________\n",
      "dropout_17 (Dropout)         (None, 64, 64, 32)        0         \n",
      "_________________________________________________________________\n",
      "conv2d_38 (Conv2D)           (None, 64, 64, 64)        18496     \n",
      "_________________________________________________________________\n",
      "activation_30 (Activation)   (None, 64, 64, 64)        0         \n",
      "_________________________________________________________________\n",
      "conv2d_39 (Conv2D)           (None, 62, 62, 64)        36928     \n",
      "_________________________________________________________________\n",
      "activation_31 (Activation)   (None, 62, 62, 64)        0         \n",
      "_________________________________________________________________\n",
      "max_pooling2d_22 (MaxPooling (None, 31, 31, 64)        0         \n",
      "_________________________________________________________________\n",
      "dropout_18 (Dropout)         (None, 31, 31, 64)        0         \n",
      "_________________________________________________________________\n",
      "conv2d_40 (Conv2D)           (None, 31, 31, 96)        55392     \n",
      "_________________________________________________________________\n",
      "activation_32 (Activation)   (None, 31, 31, 96)        0         \n",
      "_________________________________________________________________\n",
      "conv2d_41 (Conv2D)           (None, 29, 29, 96)        83040     \n",
      "_________________________________________________________________\n",
      "activation_33 (Activation)   (None, 29, 29, 96)        0         \n",
      "_________________________________________________________________\n",
      "max_pooling2d_23 (MaxPooling (None, 14, 14, 96)        0         \n",
      "_________________________________________________________________\n",
      "dropout_19 (Dropout)         (None, 14, 14, 96)        0         \n",
      "_________________________________________________________________\n",
      "flatten_5 (Flatten)          (None, 18816)             0         \n",
      "_________________________________________________________________\n",
      "dense_12 (Dense)             (None, 512)               9634304   \n",
      "_________________________________________________________________\n",
      "activation_34 (Activation)   (None, 512)               0         \n",
      "_________________________________________________________________\n",
      "dropout_20 (Dropout)         (None, 512)               0         \n",
      "_________________________________________________________________\n",
      "dense_13 (Dense)             (None, 10)                5130      \n",
      "_________________________________________________________________\n",
      "activation_35 (Activation)   (None, 10)                0         \n",
      "=================================================================\n",
      "Total params: 9,834,186\n",
      "Trainable params: 9,834,186\n",
      "Non-trainable params: 0\n",
      "_________________________________________________________________\n"
     ]
    }
   ],
   "source": [
    "model = Sequential()\n",
    "model.add(Conv2D(32, (3, 3), padding=\"same\",\n",
    "                input_shape=(IMG_ROWS, IMG_COLS, IMG_CHANNELS)))\n",
…
